…
  nb_filter=1, nb_row=3, nb_col=3, border_mode="same")(activation)
/home/quyuan/GP/code/mydeepst/models/STResNet.py:179: UserWarning: Update your `Model` call to the Keras 2 API: `Model(outputs=Tensor("ac..., inputs=[<tf.Tenso...)`
  model = Model(input=main_inputs, output=main_output)
____________________________________________________________________________________________________
Layer (type)                     Output Shape          Param #     Connected to                     
====================================================================================================
input_1 (InputLayer)             (None, 3, 16, 16)     0                                            
____________________________________________________________________________________________________
conv2d_1 (Conv2D)                (None, 64, 16, 16)    1792        input_1[0][0]                    
____________________________________________________________________________________________________
activation_1 (Activation)        (None, 64, 16, 16)    0           conv2d_1[0][0]                   
____________________________________________________________________________________________________
conv2d_2 (Conv2D)                (None, 64, 16, 16)    36928       activation_1[0][0]               
____________________________________________________________________________________________________
activation_2 (Activation)        (None, 64, 16, 16)    0           conv2d_2[0][0]                   
____________________________________________________________________________________________________
conv2d_3 (Conv2D)                (None, 64, 16, 16)    36928       activation_2[0][0]               
____________________________________________________________________________________________________
merge_1 (Merge)                  (None, 64, 16, 16)    0           conv2d_1[0][0]                   
                                                                   conv2d_3[0][0]                   
____________________________________________________________________________________________________
activation_3 (Activation)        (None, 64, 16, 16)    0           merge_1[0][0]                    
____________________________________________________________________________________________________
conv2d_4 (Conv2D)                (None, 64, 16, 16)    36928       activation_3[0][0]               
____________________________________________________________________________________________________
activation_4 (Activation)        (None, 64, 16, 16)    0           conv2d_4[0][0]                   
____________________________________________________________________________________________________
conv2d_5 (Conv2D)                (None, 64, 16, 16)    36928       activation_4[0][0]               
____________________________________________________________________________________________________
merge_2 (Merge)                  (None, 64, 16, 16)    0           merge_1[0][0]                    
                                                                   conv2d_5[0][0]                   
____________________________________________________________________________________________________
activation_5 (Activation)        (None, 64, 16, 16)    0           merge_2[0][0]                    
____________________________________________________________________________________________________
conv2d_6 (Conv2D)                (None, 64, 16, 16)    36928       activation_5[0][0]               
____________________________________________________________________________________________________
activation_6 (Activation)        (None, 64, 16, 16)    0           conv2d_6[0][0]                   
____________________________________________________________________________________________________
conv2d_7 (Conv2D)                (None, 64, 16, 16)    36928       activation_6[0][0]               
____________________________________________________________________________________________________
merge_3 (Merge)                  (None, 64, 16, 16)    0           merge_2[0][0]                    
                                                                   conv2d_7[0][0]                   
____________________________________________________________________________________________________
activation_7 (Activation)        (None, 64, 16, 16)    0           merge_3[0][0]                    
____________________________________________________________________________________________________
conv2d_8 (Conv2D)                (None, 64, 16, 16)    36928       activation_7[0][0]               
____________________________________________________________________________________________________
activation_8 (Activation)        (None, 64, 16, 16)    0           conv2d_8[0][0]                   
____________________________________________________________________________________________________
conv2d_9 (Conv2D)                (None, 64, 16, 16)    36928       activation_8[0][0]               
____________________________________________________________________________________________________
merge_4 (Merge)                  (None, 64, 16, 16)    0           merge_3[0][0]                    
                                                                   conv2d_9[0][0]                   
____________________________________________________________________________________________________
activation_9 (Activation)        (None, 64, 16, 16)    0           merge_4[0][0]                    
____________________________________________________________________________________________________
conv2d_10 (Conv2D)               (None, 1, 16, 16)     577         activation_9[0][0]               
____________________________________________________________________________________________________
activation_10 (Activation)       (None, 1, 16, 16)     0           conv2d_10[0][0]                  
====================================================================================================
Total params: 297,793
Trainable params: 297,793
Non-trainable params: 0
____________________________________________________________________________________________________
==========
training model...
main.py:202: UserWarning: The `nb_epoch` argument in `fit` has been renamed `epochs`.
…
