…
Now sampling at 300 timeslots.
Now sampling at 400 timeslots.
Now sampling at 500 timeslots.
Now sampling at 600 timeslots.
Now sampling at 700 timeslots.
Now sampling at 800 timeslots.
Now sampling at 900 timeslots.
Now sampling at 1000 timeslots.
Now sampling at 1100 timeslots.
min: 0.0 max: 281.0
__________________________________________________________________________________________________
Layer (type)                    Output Shape         Param #     Connected to                     
==================================================================================================
nbhd_volume_input_time_1 (Input (None, 1, 7, 7)      0                                            
__________________________________________________________________________________________________
nbhd_volume_input_time_2 (Input (None, 1, 7, 7)      0                                            
__________________________________________________________________________________________________
nbhd_volume_input_time_3 (Input (None, 1, 7, 7)      0                                            
__________________________________________________________________________________________________
nbhd_volume_input_time_4 (Input (None, 1, 7, 7)      0                                            
__________________________________________________________________________________________________
nbhd_volume_input_time_5 (Input (None, 1, 7, 7)      0                                            
__________________________________________________________________________________________________
nbhd_volume_input_time_6 (Input (None, 1, 7, 7)      0                                            
__________________________________________________________________________________________________
nbhd_volume_input_time_7 (Input (None, 1, 7, 7)      0                                            
__________________________________________________________________________________________________
nbhd_volume_input_time_8 (Input (None, 1, 7, 7)      0                                            
__________________________________________________________________________________________________
nbhd_convs_time0_1 (Conv2D)     (None, 1, 7, 64)     4096        nbhd_volume_input_time_1[0][0]   
__________________________________________________________________________________________________
nbhd_convs_time0_2 (Conv2D)     (None, 1, 7, 64)     4096        nbhd_volume_input_time_2[0][0]   
__________________________________________________________________________________________________
nbhd_convs_time0_3 (Conv2D)     (None, 1, 7, 64)     4096        nbhd_volume_input_time_3[0][0]   
__________________________________________________________________________________________________
nbhd_convs_time0_4 (Conv2D)     (None, 1, 7, 64)     4096        nbhd_volume_input_time_4[0][0]   
__________________________________________________________________________________________________
nbhd_convs_time0_5 (Conv2D)     (None, 1, 7, 64)     4096        nbhd_volume_input_time_5[0][0]   
__________________________________________________________________________________________________
nbhd_convs_time0_6 (Conv2D)     (None, 1, 7, 64)     4096        nbhd_volume_input_time_6[0][0]   
__________________________________________________________________________________________________
nbhd_convs_time0_7 (Conv2D)     (None, 1, 7, 64)     4096        nbhd_volume_input_time_7[0][0]   
__________________________________________________________________________________________________
nbhd_convs_time0_8 (Conv2D)     (None, 1, 7, 64)     4096        nbhd_volume_input_time_8[0][0]   
__________________________________________________________________________________________________
nbhd_convs_activation_time0_1 ( (None, 1, 7, 64)     0           nbhd_convs_time0_1[0][0]         
__________________________________________________________________________________________________
nbhd_convs_activation_time0_2 ( (None, 1, 7, 64)     0           nbhd_convs_time0_2[0][0]         
__________________________________________________________________________________________________
nbhd_convs_activation_time0_3 ( (None, 1, 7, 64)     0           nbhd_convs_time0_3[0][0]         
__________________________________________________________________________________________________
nbhd_convs_activation_time0_4 ( (None, 1, 7, 64)     0           nbhd_convs_time0_4[0][0]         
__________________________________________________________________________________________________
nbhd_convs_activation_time0_5 ( (None, 1, 7, 64)     0           nbhd_convs_time0_5[0][0]         
__________________________________________________________________________________________________
nbhd_convs_activation_time0_6 ( (None, 1, 7, 64)     0           nbhd_convs_time0_6[0][0]         
__________________________________________________________________________________________________
nbhd_convs_activation_time0_7 ( (None, 1, 7, 64)     0           nbhd_convs_time0_7[0][0]         
__________________________________________________________________________________________________
nbhd_convs_activation_time0_8 ( (None, 1, 7, 64)     0           nbhd_convs_time0_8[0][0]         
__________________________________________________________________________________________________
nbhd_convs_time1_1 (Conv2D)     (None, 1, 7, 64)     36928       nbhd_convs_activation_time0_1[0][
__________________________________________________________________________________________________
nbhd_convs_time1_2 (Conv2D)     (None, 1, 7, 64)     36928       nbhd_convs_activation_time0_2[0][
__________________________________________________________________________________________________
nbhd_convs_time1_3 (Conv2D)     (None, 1, 7, 64)     36928       nbhd_convs_activation_time0_3[0][
__________________________________________________________________________________________________
nbhd_convs_time1_4 (Conv2D)     (None, 1, 7, 64)     36928       nbhd_convs_activation_time0_4[0][
__________________________________________________________________________________________________
nbhd_convs_time1_5 (Conv2D)     (None, 1, 7, 64)     36928       nbhd_convs_activation_time0_5[0][
__________________________________________________________________________________________________
nbhd_convs_time1_6 (Conv2D)     (None, 1, 7, 64)     36928       nbhd_convs_activation_time0_6[0][
__________________________________________________________________________________________________
nbhd_convs_time1_7 (Conv2D)     (None, 1, 7, 64)     36928       nbhd_convs_activation_time0_7[0][
__________________________________________________________________________________________________
nbhd_convs_time1_8 (Conv2D)     (None, 1, 7, 64)     36928       nbhd_convs_activation_time0_8[0][
__________________________________________________________________________________________________
nbhd_convs_activation_time1_1 ( (None, 1, 7, 64)     0           nbhd_convs_time1_1[0][0]         
__________________________________________________________________________________________________
nbhd_convs_activation_time1_2 ( (None, 1, 7, 64)     0           nbhd_convs_time1_2[0][0]         
__________________________________________________________________________________________________
nbhd_convs_activation_time1_3 ( (None, 1, 7, 64)     0           nbhd_convs_time1_3[0][0]         
__________________________________________________________________________________________________
nbhd_convs_activation_time1_4 ( (None, 1, 7, 64)     0           nbhd_convs_time1_4[0][0]         
__________________________________________________________________________________________________
nbhd_convs_activation_time1_5 ( (None, 1, 7, 64)     0           nbhd_convs_time1_5[0][0]         
__________________________________________________________________________________________________
nbhd_convs_activation_time1_6 ( (None, 1, 7, 64)     0           nbhd_convs_time1_6[0][0]         
__________________________________________________________________________________________________
nbhd_convs_activation_time1_7 ( (None, 1, 7, 64)     0           nbhd_convs_time1_7[0][0]         
__________________________________________________________________________________________________
nbhd_convs_activation_time1_8 ( (None, 1, 7, 64)     0           nbhd_convs_time1_8[0][0]         
__________________________________________________________________________________________________
nbhd_convs_time2_1 (Conv2D)     (None, 1, 7, 64)     36928       nbhd_convs_activation_time1_1[0][
__________________________________________________________________________________________________
nbhd_convs_time2_2 (Conv2D)     (None, 1, 7, 64)     36928       nbhd_convs_activation_time1_2[0][
__________________________________________________________________________________________________
nbhd_convs_time2_3 (Conv2D)     (None, 1, 7, 64)     36928       nbhd_convs_activation_time1_3[0][
__________________________________________________________________________________________________
nbhd_convs_time2_4 (Conv2D)     (None, 1, 7, 64)     36928       nbhd_convs_activation_time1_4[0][
__________________________________________________________________________________________________
nbhd_convs_time2_5 (Conv2D)     (None, 1, 7, 64)     36928       nbhd_convs_activation_time1_5[0][
__________________________________________________________________________________________________
nbhd_convs_time2_6 (Conv2D)     (None, 1, 7, 64)     36928       nbhd_convs_activation_time1_6[0][
__________________________________________________________________________________________________
nbhd_convs_time2_7 (Conv2D)     (None, 1, 7, 64)     36928       nbhd_convs_activation_time1_7[0][
__________________________________________________________________________________________________
nbhd_convs_time2_8 (Conv2D)     (None, 1, 7, 64)     36928       nbhd_convs_activation_time1_8[0][
__________________________________________________________________________________________________
nbhd_convs_activation_time2_1 ( (None, 1, 7, 64)     0           nbhd_convs_time2_1[0][0]         
__________________________________________________________________________________________________
nbhd_convs_activation_time2_2 ( (None, 1, 7, 64)     0           nbhd_convs_time2_2[0][0]         
__________________________________________________________________________________________________
nbhd_convs_activation_time2_3 ( (None, 1, 7, 64)     0           nbhd_convs_time2_3[0][0]         
__________________________________________________________________________________________________
nbhd_convs_activation_time2_4 ( (None, 1, 7, 64)     0           nbhd_convs_time2_4[0][0]         
__________________________________________________________________________________________________
nbhd_convs_activation_time2_5 ( (None, 1, 7, 64)     0           nbhd_convs_time2_5[0][0]         
__________________________________________________________________________________________________
nbhd_convs_activation_time2_6 ( (None, 1, 7, 64)     0           nbhd_convs_time2_6[0][0]         
__________________________________________________________________________________________________
nbhd_convs_activation_time2_7 ( (None, 1, 7, 64)     0           nbhd_convs_time2_7[0][0]         
__________________________________________________________________________________________________
nbhd_convs_activation_time2_8 ( (None, 1, 7, 64)     0           nbhd_convs_time2_8[0][0]         
__________________________________________________________________________________________________
nbhd_flatten_time_1 (Flatten)   (None, 448)          0           nbhd_convs_activation_time2_1[0][
__________________________________________________________________________________________________
nbhd_flatten_time_2 (Flatten)   (None, 448)          0           nbhd_convs_activation_time2_2[0][
__________________________________________________________________________________________________
nbhd_flatten_time_3 (Flatten)   (None, 448)          0           nbhd_convs_activation_time2_3[0][
__________________________________________________________________________________________________
nbhd_flatten_time_4 (Flatten)   (None, 448)          0           nbhd_convs_activation_time2_4[0][
__________________________________________________________________________________________________
nbhd_flatten_time_5 (Flatten)   (None, 448)          0           nbhd_convs_activation_time2_5[0][
__________________________________________________________________________________________________
nbhd_flatten_time_6 (Flatten)   (None, 448)          0           nbhd_convs_activation_time2_6[0][
__________________________________________________________________________________________________
nbhd_flatten_time_7 (Flatten)   (None, 448)          0           nbhd_convs_activation_time2_7[0][
__________________________________________________________________________________________________
nbhd_flatten_time_8 (Flatten)   (None, 448)          0           nbhd_convs_activation_time2_8[0][
__________________________________________________________________________________________________
nbhd_dense_time_1 (Dense)       (None, 128)          57472       nbhd_flatten_time_1[0][0]        
__________________________________________________________________________________________________
nbhd_dense_time_2 (Dense)       (None, 128)          57472       nbhd_flatten_time_2[0][0]        
__________________________________________________________________________________________________
nbhd_dense_time_3 (Dense)       (None, 128)          57472       nbhd_flatten_time_3[0][0]        
__________________________________________________________________________________________________
nbhd_dense_time_4 (Dense)       (None, 128)          57472       nbhd_flatten_time_4[0][0]        
__________________________________________________________________________________________________
nbhd_dense_time_5 (Dense)       (None, 128)          57472       nbhd_flatten_time_5[0][0]        
__________________________________________________________________________________________________
nbhd_dense_time_6 (Dense)       (None, 128)          57472       nbhd_flatten_time_6[0][0]        
__________________________________________________________________________________________________
nbhd_dense_time_7 (Dense)       (None, 128)          57472       nbhd_flatten_time_7[0][0]        
__________________________________________________________________________________________________
nbhd_dense_time_8 (Dense)       (None, 128)          57472       nbhd_flatten_time_8[0][0]        
__________________________________________________________________________________________________
nbhd_dense_activation_time_1 (A (None, 128)          0           nbhd_dense_time_1[0][0]          
__________________________________________________________________________________________________
nbhd_dense_activation_time_2 (A (None, 128)          0           nbhd_dense_time_2[0][0]          
__________________________________________________________________________________________________
nbhd_dense_activation_time_3 (A (None, 128)          0           nbhd_dense_time_3[0][0]          
__________________________________________________________________________________________________
nbhd_dense_activation_time_4 (A (None, 128)          0           nbhd_dense_time_4[0][0]          
__________________________________________________________________________________________________
nbhd_dense_activation_time_5 (A (None, 128)          0           nbhd_dense_time_5[0][0]          
__________________________________________________________________________________________________
nbhd_dense_activation_time_6 (A (None, 128)          0           nbhd_dense_time_6[0][0]          
__________________________________________________________________________________________________
nbhd_dense_activation_time_7 (A (None, 128)          0           nbhd_dense_time_7[0][0]          
__________________________________________________________________________________________________
nbhd_dense_activation_time_8 (A (None, 128)          0           nbhd_dense_time_8[0][0]          
__________________________________________________________________________________________________
concatenate_1 (Concatenate)     (None, 1024)         0           nbhd_dense_activation_time_1[0][0
                                                                 nbhd_dense_activation_time_2[0][0
                                                                 nbhd_dense_activation_time_3[0][0
                                                                 nbhd_dense_activation_time_4[0][0
                                                                 nbhd_dense_activation_time_5[0][0
                                                                 nbhd_dense_activation_time_6[0][0
                                                                 nbhd_dense_activation_time_7[0][0
                                                                 nbhd_dense_activation_time_8[0][0
__________________________________________________________________________________________________
reshape_1 (Reshape)             (None, 8, 128)       0           concatenate_1[0][0]              
__________________________________________________________________________________________________
lstm_1 (LSTM)                   (None, 128)          131584      reshape_1[0][0]                  
__________________________________________________________________________________________________
dense_1 (Dense)                 (None, 1)            129         lstm_1[0][0]                     
__________________________________________________________________________________________________
activation_1 (Activation)       (None, 1)            0           dense_1[0][0]                    
==================================================================================================
Total params: 1,215,105
Trainable params: 1,215,105
Non-trainable params: 0
__________________________________________________________________________________________________
Train on 224460 samples, validate on 56116 samples
Epoch 1/100
2018-04-02 17:14:32.989000: I tensorflow/core/common_runtime/gpu/gpu_device.cc:1120] Creating TensorFlow device (/device:GPU:0) -> (device: 0, name: Tesla K80, pci bus id: 0000:06:00.0, compute capability: 3.7)
…
