…
  main_output = merge(new_outputs, mode='sum')
/home/quyuan/GP/code/mydeepst/models/STResNet.py:114: UserWarning: Update your `Model` call to the Keras 2 API: `Model(outputs=Tensor("ac..., inputs=[<tf.Tenso...)`
  model = Model(input=main_inputs, output=main_output)
____________________________________________________________________________________________________
Layer (type)                     Output Shape          Param #     Connected to                     
====================================================================================================
input_1 (InputLayer)             (None, 3, 16, 16)     0                                            
____________________________________________________________________________________________________
input_2 (InputLayer)             (None, 4, 16, 16)     0                                            
____________________________________________________________________________________________________
conv2d_1 (Conv2D)                (None, 64, 16, 16)    1792        input_1[0][0]                    
____________________________________________________________________________________________________
conv2d_11 (Conv2D)               (None, 64, 16, 16)    2368        input_2[0][0]                    
____________________________________________________________________________________________________
activation_1 (Activation)        (None, 64, 16, 16)    0           conv2d_1[0][0]                   
____________________________________________________________________________________________________
activation_10 (Activation)       (None, 64, 16, 16)    0           conv2d_11[0][0]                  
____________________________________________________________________________________________________
conv2d_2 (Conv2D)                (None, 64, 16, 16)    36928       activation_1[0][0]               
____________________________________________________________________________________________________
conv2d_12 (Conv2D)               (None, 64, 16, 16)    36928       activation_10[0][0]              
____________________________________________________________________________________________________
activation_2 (Activation)        (None, 64, 16, 16)    0           conv2d_2[0][0]                   
____________________________________________________________________________________________________
activation_11 (Activation)       (None, 64, 16, 16)    0           conv2d_12[0][0]                  
____________________________________________________________________________________________________
conv2d_3 (Conv2D)                (None, 64, 16, 16)    36928       activation_2[0][0]               
____________________________________________________________________________________________________
conv2d_13 (Conv2D)               (None, 64, 16, 16)    36928       activation_11[0][0]              
____________________________________________________________________________________________________
merge_1 (Merge)                  (None, 64, 16, 16)    0           conv2d_1[0][0]                   
                                                                   conv2d_3[0][0]                   
____________________________________________________________________________________________________
merge_5 (Merge)                  (None, 64, 16, 16)    0           conv2d_11[0][0]                  
                                                                   conv2d_13[0][0]                  
____________________________________________________________________________________________________
activation_3 (Activation)        (None, 64, 16, 16)    0           merge_1[0][0]                    
____________________________________________________________________________________________________
activation_12 (Activation)       (None, 64, 16, 16)    0           merge_5[0][0]                    
____________________________________________________________________________________________________
conv2d_4 (Conv2D)                (None, 64, 16, 16)    36928       activation_3[0][0]               
____________________________________________________________________________________________________
conv2d_14 (Conv2D)               (None, 64, 16, 16)    36928       activation_12[0][0]              
____________________________________________________________________________________________________
activation_4 (Activation)        (None, 64, 16, 16)    0           conv2d_4[0][0]                   
____________________________________________________________________________________________________
activation_13 (Activation)       (None, 64, 16, 16)    0           conv2d_14[0][0]                  
____________________________________________________________________________________________________
conv2d_5 (Conv2D)                (None, 64, 16, 16)    36928       activation_4[0][0]               
____________________________________________________________________________________________________
conv2d_15 (Conv2D)               (None, 64, 16, 16)    36928       activation_13[0][0]              
____________________________________________________________________________________________________
merge_2 (Merge)                  (None, 64, 16, 16)    0           merge_1[0][0]                    
                                                                   conv2d_5[0][0]                   
____________________________________________________________________________________________________
merge_6 (Merge)                  (None, 64, 16, 16)    0           merge_5[0][0]                    
                                                                   conv2d_15[0][0]                  
____________________________________________________________________________________________________
activation_5 (Activation)        (None, 64, 16, 16)    0           merge_2[0][0]                    
____________________________________________________________________________________________________
activation_14 (Activation)       (None, 64, 16, 16)    0           merge_6[0][0]                    
____________________________________________________________________________________________________
conv2d_6 (Conv2D)                (None, 64, 16, 16)    36928       activation_5[0][0]               
____________________________________________________________________________________________________
conv2d_16 (Conv2D)               (None, 64, 16, 16)    36928       activation_14[0][0]              
____________________________________________________________________________________________________
activation_6 (Activation)        (None, 64, 16, 16)    0           conv2d_6[0][0]                   
____________________________________________________________________________________________________
activation_15 (Activation)       (None, 64, 16, 16)    0           conv2d_16[0][0]                  
____________________________________________________________________________________________________
conv2d_7 (Conv2D)                (None, 64, 16, 16)    36928       activation_6[0][0]               
____________________________________________________________________________________________________
conv2d_17 (Conv2D)               (None, 64, 16, 16)    36928       activation_15[0][0]              
____________________________________________________________________________________________________
merge_3 (Merge)                  (None, 64, 16, 16)    0           merge_2[0][0]                    
                                                                   conv2d_7[0][0]                   
____________________________________________________________________________________________________
merge_7 (Merge)                  (None, 64, 16, 16)    0           merge_6[0][0]                    
                                                                   conv2d_17[0][0]                  
____________________________________________________________________________________________________
activation_7 (Activation)        (None, 64, 16, 16)    0           merge_3[0][0]                    
____________________________________________________________________________________________________
activation_16 (Activation)       (None, 64, 16, 16)    0           merge_7[0][0]                    
____________________________________________________________________________________________________
conv2d_8 (Conv2D)                (None, 64, 16, 16)    36928       activation_7[0][0]               
____________________________________________________________________________________________________
conv2d_18 (Conv2D)               (None, 64, 16, 16)    36928       activation_16[0][0]              
____________________________________________________________________________________________________
activation_8 (Activation)        (None, 64, 16, 16)    0           conv2d_8[0][0]                   
____________________________________________________________________________________________________
activation_17 (Activation)       (None, 64, 16, 16)    0           conv2d_18[0][0]                  
____________________________________________________________________________________________________
conv2d_9 (Conv2D)                (None, 64, 16, 16)    36928       activation_8[0][0]               
____________________________________________________________________________________________________
conv2d_19 (Conv2D)               (None, 64, 16, 16)    36928       activation_17[0][0]              
____________________________________________________________________________________________________
merge_4 (Merge)                  (None, 64, 16, 16)    0           merge_3[0][0]                    
                                                                   conv2d_9[0][0]                   
____________________________________________________________________________________________________
merge_8 (Merge)                  (None, 64, 16, 16)    0           merge_7[0][0]                    
                                                                   conv2d_19[0][0]                  
____________________________________________________________________________________________________
activation_9 (Activation)        (None, 64, 16, 16)    0           merge_4[0][0]                    
____________________________________________________________________________________________________
activation_18 (Activation)       (None, 64, 16, 16)    0           merge_8[0][0]                    
____________________________________________________________________________________________________
conv2d_10 (Conv2D)               (None, 1, 16, 16)     577         activation_9[0][0]               
____________________________________________________________________________________________________
conv2d_20 (Conv2D)               (None, 1, 16, 16)     577         activation_18[0][0]              
____________________________________________________________________________________________________
i_layer_1 (iLayer)               (None, 1, 16, 16)     256         conv2d_10[0][0]                  
____________________________________________________________________________________________________
i_layer_2 (iLayer)               (None, 1, 16, 16)     256         conv2d_20[0][0]                  
____________________________________________________________________________________________________
merge_9 (Merge)                  (None, 1, 16, 16)     0           i_layer_1[0][0]                  
                                                                   i_layer_2[0][0]                  
____________________________________________________________________________________________________
activation_19 (Activation)       (None, 1, 16, 16)     0           merge_9[0][0]                    
====================================================================================================
Total params: 596,674
Trainable params: 596,674
Non-trainable params: 0
____________________________________________________________________________________________________
==========
training model...
main.py:83: UserWarning: The `nb_epoch` argument in `fit` has been renamed `epochs`.
…
